…
      (MDMAM): Parameter containing: [torch.cuda.FloatTensor of size 5x512 (cuda:0)]
      (MDMDM): Parameter containing: [torch.cuda.FloatTensor of size 5x512 (cuda:0)]
      (MDMKM): Parameter containing: [torch.cuda.FloatTensor of size 5x512 (cuda:0)]
      (MKM): Parameter containing: [torch.cuda.FloatTensor of size 5x512 (cuda:0)]
      (MKMAM): Parameter containing: [torch.cuda.FloatTensor of size 5x512 (cuda:0)]
      (MKMDM): Parameter containing: [torch.cuda.FloatTensor of size 5x512 (cuda:0)]
      (MKMKM): Parameter containing: [torch.cuda.FloatTensor of size 5x512 (cuda:0)]
  )
  (feature_projection): Sequential(
    (0): LinearPerMetapath()
    (1): LayerNorm((37, 512), eps=1e-05, elementwise_affine=True)
    (2): PReLU(num_parameters=1)
    (3): Dropout(p=0.5, inplace=False)
    (4): LinearPerMetapath()
    (5): LayerNorm((37, 512), eps=1e-05, elementwise_affine=True)
    (6): PReLU(num_parameters=1)
    (7): Dropout(p=0.5, inplace=False)
  )
  (semantic_fusion): Transformer(
    (query): Linear(in_features=512, out_features=128, bias=True)
    (key): Linear(in_features=512, out_features=128, bias=True)
    (value): Linear(in_features=512, out_features=512, bias=True)
    (att_drop): Dropout(p=0.0, inplace=False)
  )
  (fc_after_concat): Linear(in_features=18944, out_features=512, bias=True)
  (task_mlp): ModuleList(
    (0): Sequential(
      (0): PReLU(num_parameters=1)
      (1): Dropout(p=0.5, inplace=False)
    )
    (1-3): 3 x Sequential(
      (0): Linear(in_features=512, out_features=512, bias=True)
      (1): BatchNorm1d(512, eps=1e-05, momentum=0.1, affine=False, track_running_stats=True)
      (2): PReLU(num_parameters=1)
      (3): Dropout(p=0.5, inplace=False)
    )
    (4): Sequential(
      (0): Linear(in_features=512, out_features=5, bias=True)
      (1): LayerNorm((5,), eps=1e-05, elementwise_affine=False)
    )
  )
)
# Params: 83659532
Epoch 0, training Time(s): 0.5363, estimated train loss 0.8493, acc 36.5522, 33.9897
evaluation Time: 0.4925, Train loss: 0.6693, Val loss: 0.6856, Test loss: 0.6728
Train acc: (52.3503, 26.9893), Val acc: (50.3030, 25.7117), Test acc: (52.1911, 26.5514)

Epoch 1, training Time(s): 0.1180, estimated train loss 0.6797, acc 54.0381, 35.4998
…
